2025_ws/install/armor_detector/share/armor_detector/model/mlp.onnx (onnx, 117494 bytes, 10 tensors)

L1.weight f4 [120, 128]
00000000: 1828 d63d aa34 fd3d 2db1 06bd cfa6 8b3d
00000010: 1874 883c 1583 71bd 9efa 833d eb06 253e
00000020: 4b70 053e 332b 133e 392a 5e3d 3ca6 5d3d
00000030: acb6 06bb 6e26 bebb 6ea0 81bd b566 473d
00000040: f595 20bb 4262 35bd 3745 dcbb ffec 8cbb
00000050: fdca 083e a71b 1bbe 54a5 20bd aa93 b73d
00000060: 6e02 c7bd f5cb 46be 2055 473d c02a 0dbe
00000070: 7fb9 5fbd 9b98 583d 0f34 ed3d 3285 703e
00000080: 7118 b9bb 4d40 083e 1048 77bd dea3 723d
00000090: b131 1b3d fee0 263e a41e 0e3d 2a40 f43b
000000a0: bffb 2ebe 7e03 4ebd 760a 41bd 3f6c b13d
000000b0: 7e9c a3bd 555a 953d d26f cfbd 1e49 fabd
000000c0: 0a1b cabc c396 94be 3044 9cbd 8992 c3be
000000d0: 8865 d9be 468d 96bd 366b 01bd 27d9 543e
000000e0: 1fa1 e9be 71b9 a2be 01b3 b6be 2185 9abd
000000f0: 2506 b4bd 78ef 623e 88ed 0e3d b6fa c03d
00000100: da53 963c 1330 813d 4e5a 6dbd 49fa b73d
00000110: 26e1 f63c 06ca 133e 119c d3bd df8f df3d
00000120: 6105 663d 63f9 223e 4c05 6dbd 4e08 063e
00000130: 7c8d f8bd 80d7 893d 4279 d63d e17e 813e
00000140: 1f00 7bbd 406c c93d 844c 483d d30a bebd
00000150: 6553 ce3d 6f35 e4bd 9257 1e3e 62c4 38bd
00000160: df16 06be ffc3 1d3e b1a3 fe3c 5ee1 6f3e
00000170: 029b 1fbd 5630 a6bd cc0e a3bd 5a52 17be
00000180: 3f9a 463d 926d 193e 927b 533d 6ea5 283e
00000190: 840b 0bbd d2ff f53d 85e7 84be addb 81bc
000001a0: 78b6 dcbe 3aab bbbd aa55 bdbe 49e2 27bd
000001b0: 60a9 d3bd 5df2 393e 01cf a6bd a65f 12be
000001c0: 64ec 96bd 92e5 45be cb31 b63d 507b cabd
000001d0: ad4b 223e 42ec d5bb 8704 173e 8c3f 8d3d
000001e0: d098 613a 872f 0bbe 4cda 003e 5d74 da3c
000001f0: e65d e9bd d5a8 6bbd b358 0fbe 4a6f b93d
00000200: ca8a a13d a321 6bbe 2c29 af3d fbbe d33d
00000210: 939b b63d 6d7e 8d3d a681 66bc 9466 c2bc
00000220: ecfa c53d f9c4 653e 2c52 bebd d68e 123e
00000230: f43e adbd bbcd 103d a8b7 01be 17ec a03d
00000240: fba5 043e a49c 2b3e a07f babb 2dc0 2d3e
00000250: d39f 873d 9f36 1e3e 6df3 c2bd 5c90 4abd
00000260: 8a87 c5bc 2040 c8bd 41ce 52bd 7569 56bd
00000270: d92d e13c 29f1 0d3d ce6b 7c3d 4420 a1bc
00000280: 5957 12be 1df8 b0bc 3309 1d3d 9c53 84bd
00000290: 76f5 0bbe 59c1 0ebe 580c 203d cf40 23bd
000002a0: deaa 393b c7ee 15be dfd6 d5bd 364c 0ebd
000002b0: 4026 dbbd b8a0 b73c 8153 d73d 6378 a43d
000002c0: 351b 45be 26c5 89bc d538 883d 847f cb3d
000002d0: cce4 7abd e214 603d 189e 38be 9b68 0cbd
000002e0: dc87 9dbd e1f4 9ebd a29c 35bd cc8d b53c
000002f0: dbf2 84bd c36d 2bbe 5141 d9bc 3004 a83c
00000300: 80b7 d8bd ff8e 81be e60b b6bd fb55 12be
00000310: 50a7 21bd c118 e3bd 65d4 cf3d 5ef5 2c3c
00000320: 4bc0 473c 3d6b e43d 0780 8e3d f058 e13d
00000330: 3625 023b 78d9 a83c db25 023e 6f6d 213d
00000340: fef2 6a3d ece1 643d 83bd c03d 992e d53d
00000350: 929a d73d b3e2 133e 00f8 373d cc2c 153d
00000360: 3e2e 19be 0c5e ffbd 799a cc3d e32d edbd
00000370: 2838 8cbc 28aa 153c 6d74 0bbe 9d26 dbbd
00000380: 1e7a 013d ec27 6cbd 273a f73c dbef f2bd
00000390: 7a53 213d b700 853e bd16 9b3d bec4 4b3e
000003a0: defb c6bd 0de8 41bd add7 e73c 278b c13a
000003b0: 8b0e d33c 27e8 19be 8398 26bd 37f7 afbd
000003c0: cedb c23c c97a c43d af2f 0f3e 7344 863d
000003d0: 9abf b2bc 9183 8abe d08d 5cbd 6f86 4cbe
000003e0: 6f99 b6bd 13bc 0fbe 0691 23be af72 94bc
000003f0: 11bc b3bd e502 263d accc 093e bbb9 dbbc
0.10456866 0.123635605 -0.03288381 0.068189256 0.01665692 -0.0589629 0.06444286 0.1611592
0.13031118 0.14371948 0.054239485 0.05411361 -0.0020555658 -0.005802921 -0.06329428 0.048681933
-0.0024503444 -0.04428316 -0.0067221182 -0.004300713 0.13358684 -0.15147267 -0.03922017 0.089637116
-0.0971726 -0.19413741 0.048665166 -0.13785839 -0.054620262 0.05287991 0.11582195 0.2348831
-0.0056486656 0.13305779 -0.06037146 0.059238307 0.037889186 0.16296765 0.03469719 0.007453938
-0.17088221 -0.0502963 -0.047129117 0.086632244 -0.07988833 0.0729262 -0.1012875 -0.12220977
-0.024671096 -0.29021272 -0.07630193 -0.38197735 -0.42460275 -0.073511645 -0.031596385 0.20785962
-0.45630738 -0.31782106 -0.35683444 -0.075449236 -0.087902345 0.22161663 0.034894496 0.09422819
0.01835053 0.063079976 -0.05794745 0.08983285 0.030136656 0.14432535 -0.10332502 0.10916113
0.056157473 0.15915446 -0.05786638 0.13089105 -0.12136361 0.067305565 0.10472347 0.25292113
-0.061279412 0.098351 0.048901096 -0.09279408 0.100745 -0.11143004 0.15463093 -0.04510916
-0.13094662 0.15406798 0.031083914 0.23425815 -0.038966186 -0.08114688 -0.07961807 -0.14777508
0.048486944 0.14983204 0.051631518 0.16469356 -0.03394653 0.120116845 -0.25957885 -0.01585182
-0.43107963 -0.09163518 -0.3697942 -0.040987287 -0.1033504 0.1815886 -0.081449516 -0.142943
-0.07369307 -0.19325855 0.08896216 -0.09886801 0.1584918 -0.0065284083 0.14747821 0.06896886
0.00086058397 -0.13592349 0.12583274 0.026666814 -0.11394863 -0.057534058 -0.1399868 0.0905443
0.078878 -0.2296205 0.08552775 0.10339161 0.08916392 0.069088794 -0.0140689965 -0.023730554
0.09667 0.2243842 -0.09293017 0.143123 -0.08459273 0.03535245 -0.12667716 0.078575306
0.12953942 0.16758972 -0.0056914836 0.1696784 0.06622281 0.15450524 -0.09519086 -0.049454078
-0.024112482 -0.09777856 -0.05146623 -0.052346665 0.027487682 0.034653816 0.061626248 -0.019668706
-0.14291133 -0.021602685 0.03833885 -0.0646126 -0.13667855 -0.13940944 0.039074272 -0.03985673
0.0028330605 -0.14641868 -0.10441374 -0.03474065 -0.10700655 0.022415504 0.10513974 0.080307744
-0.1924866 -0.01681764 0.06651465 0.09936431 -0.061253354 0.054707415 -0.18029058 -0.034279447
-0.07691929 -0.07761551 -0.04433883 0.02216234 -0.064916335 -0.1674109 -0.026520403 0.02050981
-0.10581875 -0.2530441 -0.08888988 -0.14290611 -0.039466202 -0.11088706 0.10147933 0.010556547
0.012191842 0.111532666 0.06958013 0.110032916 0.0019858605 0.02061151 0.12709753 0.039411005
0.05736064 0.05587952 0.094111465 0.104092784 0.10527529 0.14441948 0.044914246 0.036419675
-0.14959046 -0.1246911 0.09990401 -0.11581018 -0.017116621 0.009134807 -0.13618632 -0.10700724
0.0316106 -0.05765526 0.030179096 -0.11862155 0.03938625 0.25977108 0.07572696 0.1989927
-0.097160086 -0.04734044 0.028301084 0.0014766202 0.02576377 -0.15029965 -0.04067279 -0.08592074
0.023786452 0.09593732 0.13983034 0.065560244 -0.021819878 -0.27053502 -0.05384618 -0.19973157
-0.08915984 -0.14036588 -0.15973291 -0.018121092 -0.08776105 0.040530104 0.13456982 -0.026821962

L1.bias f4 [120]
00000000: 19b2 a83d 2a2d ea3c fbc6 653c 5f9f 55bd
00000010: f470 1b3e d489 f73d 9ea8 41be 8503 123e
00000020: 1b47 283e dab9 433d 9a70 f43d 7615 533e
00000030: 3a8f 963d a9cd c0bc 539c 0ebd f0e2 703e
00000040: 69ed c3bd ccc2 a3bd c5cb 9abd d222 debd
00000050: 3805 ad3c 801d cdbd 5205 8b3d 56aa 4c3e
00000060: a559 72be bc47 f63b 162b 0ebe f53b 343e
00000070: 85e2 ee3c 6512 44be 3ba5 c93d 35d0 033e
00000080: 3508 4d3e 3a5c 693e 97c3 babd 820f 8e3d
00000090: f670 07be 9a7e 98bd 92b2 7f3e 59a8 ff39
000000a0: 6d41 993d e1b2 f93d fa81 d13d 8701 4bbe
000000b0: ced0 173e da2b 013e de2f 99bd ffef 5f3b
000000c0: 1bae bbbd 8a6c 82bd b6d3 32bd 1369 3c3e
000000d0: 9cda 283d 654c 143e 84c0 d83d 18e9 7ebd
000000e0: 7cb1 a7bd 1303 5fbe 031c ac3d 3394 323b
000000f0: 7462 263e b536 eebd daf1 71bd 5800 1bbe
00000100: 93de ddbd 24b2 dc3d 9ee7 cd3d cc21 0d3c
00000110: f60c 7ebd b4d3 183e b009 d4bd f760 7e3c
00000120: 345c c0bc 3360 fbbd 3b84 9ebd 1bba 88bd
00000130: ede8 d1bd e7db 413d 21f3 18bd 609e 2bbd
00000140: 9b03 9e3e f92d cf3c 9299 1a3e 41c3 edbb
00000150: 713f a6bd 1fca 643e 8383 213e d7e9 933d
00000160: 6c5e e6bc ef26 b03d b596 a4bd 1285 483d
00000170: 3830 45bd ba6b 503e 6524 56be 1d33 3a3e
00000180: 6a99 c4bd d233 123d b92b 9d3e b31d e7bd
00000190: 8dc3 4e3e d56c 053d 733d f93d a9e7 b63d
000001a0: 67bd 4d3e 2e2c 8f3d c61e 5a3e a14b 0c3c
000001b0: 4d2e 143c 0602 983e 039e bdbd 866b c0bd
000001c0: 4a04 0cbb 2f92 06bd 0601 dabd 75b0 be3d
000001d0: a0b7 503d 3b8b d03d afad 37bd 8761 45be
0.082370944 0.028585989 0.014024491 -0.05215394 0.15179807 0.120868355 -0.18911979 0.14259155
0.16433375 0.047784664 0.119355395 0.20613655 0.07351537 -0.023535566 -0.03481705 0.2352407
-0.09566767 -0.07996139 -0.07558397 -0.10846485 0.021120653 -0.10015392 0.06788124 0.19986853
-0.23667009 0.0075158756 -0.13883623 0.17600997 0.029160747 -0.19147642 0.09845968 0.12872393
0.20022662 0.22789088 -0.09119337 0.06936552 -0.13226685 -0.07446022 0.24970463 0.0004876282
0.07483182 0.121923216 0.10229869 -0.19824801 0.14825746 0.12614384 -0.07479833 0.0034170148
-0.09164067 -0.063683584 -0.043658935 0.18399458 0.041224107 0.14482267 0.105835944 -0.062234014
-0.08188149 -0.21778516 0.0840378 0.0027248978 0.16248494 -0.11631528 -0.05906854 -0.1513685
-0.10833468 0.10776165 0.10053943 0.008614015 -0.06202408 0.14924508 -0.1035341 0.015526048
-0.023481466 -0.12274208 -0.07740065 -0.06676122 -0.10249505 0.047328856 -0.03734124 -0.041899085
0.30862126 0.025290476 0.15097645 -0.007255942 -0.08117569 0.22342728 0.15772824 0.07222336
-0.028121196 0.08601176 -0.080365576 0.04895503 -0.048141688 0.20353594 -0.20912321 0.1818356
-0.09599574 0.03569395 0.3069742 -0.112849616 0.20191784 0.032574493 0.12169924 0.089309044
0.20091783 0.069908485 0.21300802 0.008562953 0.009044242 0.29689044 -0.09258654 -0.093955085
-0.0021364861 -0.032854255 -0.106447265 0.09311 0.05095637 0.10182806 -0.044843372 -0.19275485

L2.weight f4 [84, 120]
00000000: 2202 c03e f30b de3a 96d4 07bd 812a ccbc
00000010: 5636 863c f08e fa3d da43 243e 1a36 c93d
00000020: 5bb8 e0bd d5a6 743e e7f0 ccbc a0d9 0b3e
00000030: 739e 4cbc bc5f 4a3e 3a4f cc3e b40f fcbd
00000040: f91a 10be bca3 5a3e efac dfbc 61dc 6c3e
00000050: 783a 213e 3e30 443e 8c94 8d3d 1145 b7bc
00000060: 25b8 173d 6b6b 8d3d ee42 8b3e 2b46 a2bc
00000070: 65f1 663d bd94 853d fd0b 803d f34a 233d
00000080: 2c9b 8bbd d150 05be ab13 82bd eadc d1bd
00000090: 2865 0a3e 6b18 813d a614 8cbc bebf b23c
000000a0: 8fbc 00be 488a 183e 3b4a 123e d09f 843d
000000b0: 6321 73be 1990 133d 08db f63d fd68 86bd
000000c0: 2df4 123c 0085 ca3d 88c5 d03c eaf6 18be
000000d0: f375 a3bc 0559 be3d 3b17 9f3d 457f d3bd
000000e0: d203 0abd 52a1 7a3e d9b0 8d3e 03fb 02be
000000f0: 01f6 393d aa5d 993c 76bb 00be 0329 a13d
00000100: a475 503e 9f97 993c 0f3b 75bd b523 073c
00000110: 87d0 ffbc 559b 1dbd b9bd 14be df0c 25bd
00000120: 72b5 81bc 65c7 f5bd c4c7 b53d 5045 16be
00000130: 4223 69bd de61 eb3d 0c62 283e efca eabd
00000140: aa91 e53c e4c6 df3c dc00 60bc 26c2 633c
00000150: cca6 7b3c 087a febd 1367 c9bd d846 c5bb
00000160: 0f76 873c 02fd dabd d139 e83d b3bb b23d
00000170: 22c5 973d b1fa 89be d694 dcbc f1d6 563d
00000180: ffb9 a93d 7d1a 913d e290 b93d edc9 f53d
00000190: 59f2 73be ce83 193e 844d c93d 5f7f 203f
000001a0: 4140 ffbd 7d5d ac3e c19f 8d3c 27cf b03a
000001b0: 0b74 8cbb 2920 02be 58cf c0bd a3be 8fbd
000001c0: 4b2a 553d 517a aa3d c5ca 023c 0a30 183e
000001d0: 5bd5 a0bd 335e e13d 5dfa b9bd 1416 7a3e
000001e0: 1284 15be 883b 963d 48ed fcbd 8253 1ebd
000001f0: 828a 34bc 4a47 233d fb2c 63be e817 1b3e
00000200: 2529 4e3e 3430 393e 4f78 75bd 25d0 633e
00000210: fd4b 8abe d7b5 6abe a437 923c e7f7 963d
00000220: a350 76bd 307b 7b3c c8a6 adbe 263d ee3d
00000230: 9dd0 b8bd 5c77 803e 58e5 81bd 9abe 4ebe
00000240: 0621 ad3d bf86 b4be 9b10 893e fc66 c2bd
00000250: 35ac 223e 6e11 76be 4eb4 52bd cd9c b73d
00000260: a484 a73d 9f02 ed3d 7e98 a1bd 0418 d8bd
00000270: 169a a23c 46e7 3e3e 9663 daba e6f5 ae3d
00000280: 819c 2bbe 6de5 75bd 6fc5 60bd 36dd 5f3e
00000290: ba2a 2dbe 4d8d 74be 0930 6d3e 4a25 133e
000002a0: afb2 47bd abdc caba 65a5 353d 0859 04bd
000002b0: ba8a ed3c 57f5 abbe 9bae 3cbe 396b bc3d
000002c0: 80d3 9cbe d873 89bb 2633 fb3d 24bc 123e
000002d0: 6384 cfbe 406e 943e 7c05 5cbd 6c7f 4a3e
000002e0: 2ac1 243b 4dd8 e93c 4007 833d e2b0 7fbe
000002f0: a581 013e b6ef 0abd 50b5 9f3e 3d67 91bd
00000300: e1c0 153e 226b 923e ee0c 11be 152b 103e
00000310: e049 f7bc b8b3 5f3d 718d 03be f60e b13d
00000320: 6c3a 0b3e deb0 1bbf 5239 d33d cb4c 4dbe
00000330: 6a1f 42bc 5ebe f8bc fadd 3e3d ee6b d0bd
00000340: aff0 35be 565f 1c3d 5279 bbbe 0a50 823d
00000350: 56ce 32bd aca4 c43d b43f 33be 7ca6 87bd
00000360: 7170 c0bb 843e 88be 62dd 06be 476e 5f3e
00000370: d92c 86be 2ab9 14bc 73b5 593d 7ba9 4b3e
00000380: 2e03 79b8 56ba ecbd bd87 4abc 7d65 df3b
00000390: 13ad 6b3e beeb 6c3e 9660 823c 7cbd d13e
000003a0: 6ef6 c6bd 979b babe 4b57 213e c7da ac3d
000003b0: 204c fe3d 2855 7cbe 5149 1dbe b92f 9b3d
000003c0: d4ed 493e 0afa b83d de56 e93c 5b20 eebb
000003d0: 8d17 0b3d d882 8d3d 314f 3abe ee43 d0b9
000003e0: fa00 41bc ab0a 7cbe d58d 073e ece5 e63c
000003f0: 1b19 fd3d e7e5 d0bd d527 d53e 6ebd a7bd
0.37501627 0.0016940817 -0.033161722 -0.024922611 0.016383331 0.122342944 0.16041508 0.09824772
-0.10972663 0.23891766 -0.025017215 0.13657236 -0.012488949 0.19763082 0.39904195 -0.12307683
-0.14072789 0.21351522 -0.02730414 0.23130943 0.1574496 0.19159028 0.06913099 -0.0223718
0.03704085 0.06905254 0.271995 -0.01980885 0.056382556 0.0652251 0.062522866 0.0398664
-0.06816706 -0.1301911 -0.063514076 -0.10247214 0.1351515 0.063034855 -0.01709969 0.021819945
-0.1257193 0.148965 0.14286129 0.06475794 -0.23743205 0.036026094 0.12053496 -0.06562994
0.008969349 0.09888649 0.025484815 -0.1493794 -0.019953704 0.09294323 0.07768103 -0.10327009
-0.03369505 0.24475601 0.27673987 -0.12791066 0.045400623 0.01872142 -0.1257151 0.078691505
0.20357376 0.018749056 -0.059870776 0.008248259 -0.031227363 -0.038478214 -0.14525498 -0.040295478
-0.01583359 -0.12000922 0.08875993 -0.14674878 -0.05691839 0.11493276 0.16443652 -0.11464488
0.02802356 0.027316518 -0.01367208 0.013901269 0.015359592 -0.12425619 -0.09834113 -0.006020408
0.016535787 -0.10692789 0.113391526 0.08727207 0.07410647 -0.26949075 -0.02692644 0.052451078
0.08287429 0.0708513 0.09060837 0.12001405 -0.23822917 0.14991686 0.09829238 0.6269435
-0.12463427 0.33665076 0.01728809 0.0013489471 -0.0042862943 -0.1270758 -0.09414548 -0.07018783
0.052042287 0.08324111 0.007982914 0.14862075 -0.07853194 0.11004295 -0.09080956 0.24422485
-0.14601162 0.073355734 -0.12349945 -0.038653858 -0.011019351 0.03986291 -0.22185127 0.15145838
0.20132883 0.18084794 -0.05992919 0.2224737 -0.270111 -0.22920929 0.017848797 0.07371502
-0.060135495 0.015349194 -0.33916306 0.11632757 -0.09024165 0.25091064 -0.06342572 -0.20189896
0.08453564 -0.35259053 0.2677048 -0.09492299 0.15886004 -0.24030086 -0.051441483 0.08965454
0.08179596 0.115727656 -0.07890414 -0.105514556 0.019848865 0.18642911 -0.0016661759 0.08542995
-0.1675892 -0.06003325 -0.054875787 0.21861729 -0.1691083 -0.23882027 0.23162855 0.14369693
-0.04875439 -0.0015477141 0.044347186 -0.03231147 0.028996814 -0.33585617 -0.18425982 0.092001386
-0.30630112 -0.004194718 0.12265615 0.14329582 -0.4053069 0.28990364 -0.053716168 0.1977517
0.0025139549 0.028545523 0.06397867 -0.24969819 0.12647112 -0.033920012 0.31193018 -0.07099769
0.14624359 0.2859736 -0.14165089 0.14078934 -0.030186594 0.054614753 -0.12846924 0.08645432
0.13596505 -0.6081675 0.10313667 -0.20048825 -0.01184831 -0.030364212 0.046598412 -0.10176836
-0.17767595 0.038176857 -0.36615998 0.063629225 -0.04365381 0.09601721 -0.1750477 -0.06623551
-0.005872779 -0.26610196 -0.13170388 0.21819411 -0.2620609 -0.00907735 0.05315156 0.1988887
-5.9369188e-05 -0.11558978 -0.012361464 0.0068175183 0.23015241 0.23136804 0.015915196 0.40964878
-0.097149715 -0.3644683 0.15755956 0.08440166 0.124168634 -0.2464186 -0.15359999 0.07577462
0.1971963 0.09032066 0.028483804 -0.0072670407 0.033958007 0.06909722 -0.18194272 -0.00039723463
-0.011780018 -0.24613445 0.13237698 0.028185807 0.12358304 -0.102001004 0.41631952 -0.08190428

L2.bias f4 [84]
00000000: 4505 d2bd cde3 f8bd 2d17 5c3e ed70 1c3e
00000010: 9414 9b3e 2449 9d3e 767f 2cbd 0f8e 073e
00000020: 0e73 62bd 0d9c cdbc aa8c c2bd 6c98 553d
00000030: 3730 be3d 5134 4fbe df0a 023e 4cee cf3d
00000040: 6eb1 84bd bec1 e93c b8d6 953e 74c1 05bc
00000050: 2fa8 b1be 8b1e f73d 05cb a83d 12e8 babd
00000060: 98c1 df3b fd3d 2d3d 20c8 4a3e 597c a23e
00000070: 2b7d 8c3e 3bc2 ddbd 9852 e1bd 1504 a03e
00000080: 1e01 363c ba4d 9c3c 5f66 ae3d 983e 373e
00000090: 49bb 22bd 64c4 863d 6955 163e 062c d13d
000000a0: 722b 05be 6978 83bd 005d 363e f47b 553e
000000b0: 7f15 393c c5bb 7d3e 8f28 c7bd e5fe 4ebe
000000c0: 1b09 04bd 27f5 a33c c947 25bc 2f4e 2a3b
000000d0: 8e76 b9bc e904 ddbd 3512 1cbe 3892 203d
000000e0: aebc 6bbe be46 c1bd 2371 6e3d f8a9 9bbd
000000f0: 2aa8 0abe ada8 953e dbcd e2bd 7217 edbd
00000100: 2e42 d73c f5f9 753d 615f e03d 32db 65bd
00000110: 700d 1cbe 52dc b53e 925e f7bd dfc2 6b3d
00000120: e3c7 2dbd 1c2e 2abe 64bb 923e 398e 06bd
00000130: 18ae ca3d c203 713d 751c 62bc 065f bb3d
00000140: eb55 583d e32e c6bd 177b cd3d 67cd 783e
-0.10254911 -0.121528246 0.21493216 0.15277453 0.30289137 0.30719864 -0.042113744 0.13237785
-0.055285506 -0.025098825 -0.09499486 0.052147314 0.0928654 -0.20234801 0.1269946 0.101528734
-0.064791545 0.028534766 0.2926538 -0.008163799 -0.34698626 0.120663725 0.08241848 -0.09126295
0.006828498 0.042295445 0.19802904 0.31735495 0.27439246 -0.10828062 -0.11002082 0.31253114
0.011108665 0.019080032 0.085156195 0.17894971 -0.03972939 0.06580427 0.14681019 0.10213475
-0.13004854 -0.06419451 0.17808914 0.20848066 0.011296629 0.2477866 -0.09724533 -0.20214422
-0.032235246 0.020014359 -0.010087916 0.0025986542 -0.02263954 -0.10791952 -0.1524132 0.039201945
-0.23021194 -0.09437321 0.058213364 -0.07600778 -0.13540712 0.29230252 -0.1107442 -0.115767375
0.026276674 0.06005283 0.10955692 -0.056117244 -0.15239501 0.35519654 -0.12078585 0.05755889
-0.042426955 -0.16619152 0.28658593 -0.032850478 0.09896487 0.058841474 -0.01380073 0.09148984
0.052816313 -0.09676912 0.10033243 0.24297105

L3.weight f4 [9, 84]
00000000: de48 f2bc dae1 253e f617 87be 3370 82be
00000010: 7097 333e 93c6 41be 93d7 643d bfd2 ec3d
00000020: c80b 8e3d 0156 48be 6b95 d63d e108 afbd
00000030: da65 1ebe b257 0eba d389 00bf 7eac a23d
00000040: 0dde dc3d 5cb4 663e 0c26 81be 7c60 ae3d
00000050: 5ff9 72be d83d cfbe ef22 da3d d732 af3d
00000060: 61af c53d b698 e13d b313 89be 5042 36be
00000070: 2ec7 03bf 030e 653d d385 1ebe 6dd6 343d
00000080: 899b 55bd 1ec7 31be 58bb 3bbe f912 77bd
00000090: 1245 8b3e 6b7f 23be e027 1e3c 3c48 283e
000000a0: 9174 25be 4f1b f93d f4d9 05bd 6d04 1c3e
000000b0: fd59 c83d a7a9 343e d8f7 093d f939 cd3b
000000c0: f339 dd3d e7c6 253e 2dac 2b3e 8ae7 6dbe
000000d0: ffb3 e23d 5b4b 8cbe a229 2c3d 578c 82be
000000e0: 9e74 6e3d 1ad8 1fbd 888e 85be 9168 823d
000000f0: d0c7 3ebc c35e 1ebe 9bb0 89bc a864 f43d
00000100: cb69 08be a102 823e fde9 0c3e 5026 9b3d
00000110: 1750 9f3d 1cfb f1be 0639 643e c316 c6bd
00000120: 4f43 19bc 4583 92be 0aa8 bfbd 6a77 10bc
00000130: 6477 fdbc 8345 39be 8ea6 65be 6fb5 f5bd
00000140: 29bb 7bbe fe06 743d e58b 003e 0c3f fdbd
00000150: e538 a53d 490e 0d3e 1e08 8bbe f232 703e
00000160: 7894 d4be 10e7 15bf 2225 b8bb 6412 bbbe
00000170: 3a1e 9dba 28fa 643d 0773 173e cf48 dabc
00000180: 4b0e 79be 5b9e 66be 85db 99bd 39d6 06be
00000190: f59b 083e d845 223e 4450 e8bc 269a ae3d
000001a0: 7610 8d3e ea09 4b3e 8afa d13d e08a b33e
000001b0: 8d87 a0be 4e8a 4bbe afc1 30be 3d23 37bc
000001c0: 4c22 f53c dca1 3d3e 9fa6 93bb 6ae8 22be
000001d0: 0d1b 5a3e 59a1 023e 4659 c53d d983 6dbe
000001e0: 6819 17be bf5d c33d 2d7c 44be 44bc 793e
000001f0: 07cf a4bd 043a 22be 6a85 313d 4d6f fb3c
00000200: f780 53be d2b3 a0be 29f9 2d3d 7d5f fd3d
00000210: 665f 6f3d 53d4 6d3d 4fd0 813d e03d 6fbe
00000220: 8243 31be 15d7 433e 3ccb 333c 35b0 8bbe
00000230: 7153 3b3e 7a47 20be f566 033e 57cd e73d
00000240: ee8b 2e3d 55db ecbd a5f8 823e f76b 1e3d
00000250: 5e6f 95be 309d 3e3e 978f 8dbe 4cea a83d
00000260: 87a6 f93d 7045 e63d a984 b9be 893d 9bbe
00000270: afe6 10be e6bb 08bd b778 1cbe 8099 fabd
00000280: e13d 08bd 8222 683e 86f7 abbd 60fc 103e
00000290: 2ea6 733e 8e9a 61bd e417 a6bd 6ebc bcbe
000002a0: 9b42 78bc ba1f dfbe 41e8 a7be 092f 66be
000002b0: c0e2 fcbd d1bf 013e ede4 453d e092 573d
000002c0: 3dcb 473d 42b8 8b3b 5ce5 b6bd 4fe3 5a3e
000002d0: 3b3c 263e 3130 4d3d ab76 183d a064 053e
000002e0: 1d8d 633e 36c6 42bd 3975 4b3e b37a 903d
000002f0: dc58 e6be 8420 7abe 506a 03be f261 9dbc
00000300: e415 8ebd 02d3 62be ea3d 5e3c 98cf 053e
00000310: 4f41 a33d faf3 c6bd 29b3 193e 2495 c7bd
00000320: 275d 51be be0c 943d 9826 05be fc76 293e
00000330: 9a71 313e b917 5a3e 54a8 283d 6702 81bd
00000340: 5dbd a93d ba5a 903d 9705 fa3c 67dd a3be
00000350: 51ac 82bd 39d2 433d 8b86 2f3d 5f6d e4bc
00000360: 0d5e a73d 0821 80be 6cf7 ff3d 1ed9 25be
00000370: ef8a 79be 1ebb 0f3e d63c 05be d4a6 0cbe
00000380: ecc1 6bbe 03b8 7dbc d7b4 1b3e d1bd dd3e
00000390: d871 783c 721d 343d 73b9 17bc d449 87bd
000003a0: 361b 843d 09fd c4bd 7f96 55be e962 493d
000003b0: bde8 c73d 7a59 6fbd 34b5 983d 1a8d d13d
000003c0: 2e6a 69be 74c2 da3c db2b f53d edef 3bbe
000003d0: 7b8e e53d 066f 0d3e 18d8 41be 045f 9b3c
000003e0: f8c2 8a3e f258 033e 0c09 713e 4616 c63d
000003f0: a18f 63be 3fb1 58bd 24ac 8d3d 4e19 20be
-0.029575761 0.16199437 -0.26385468 -0.25476226 0.17538238 -0.18923406 0.05586965 0.11563634
0.06935841 -0.19564058 0.10477718 -0.085466154 -0.15468541 -0.0005429938 -0.50210303 0.079430565
0.1078454 0.22529739 -0.2522434 0.08514497 -0.2372794 -0.4047687 0.10651194 0.08554619
0.096525915 0.110154554 -0.26772842 -0.17798734 -0.514758 0.055921566 -0.15480737 0.044149805
-0.052150283 -0.17361113 -0.18333185 -0.060320828 0.27201134 -0.15966575 0.009653062 0.16433805
-0.16157748 0.12163412 -0.03267856 0.15236063 0.09782789 0.17642842 0.033683628 0.0062630144
0.108020686 0.16189156 0.16764899 -0.23232856 0.11069488 -0.27401242 0.04203189 -0.25497696
0.058216684 -0.03902445 -0.26085305 0.06367601 -0.011644319 -0.15465836 -0.016807845 0.11933261
-0.13321607 0.2539263 0.13761134 0.07575667 0.07778948 -0.47261894 0.22287378 -0.0967231
-0.0093544265 -0.28615776 -0.09358223 -0.008817533 -0.030940719 -0.18092923 -0.22426817 -0.11997496
-0.24583115 0.05957698 0.12553366 -0.12365541 0.080674924 0.1377498 -0.2715463 0.23456934
-0.41519523 -0.585557 -0.005619661 -0.36537468 -0.0011987158 0.05590263 0.14789973 -0.026646046
-0.24321859 -0.22521345 -0.07512573 -0.13167657 0.13340743 0.15846956 -0.028358586 0.08525495
0.2755162 0.19828 0.10252865 0.3506689 -0.31353417 -0.19876978 -0.17261384 -0.011177835
0.02992358 0.18518776 -0.0045059468 -0.15908971 0.21299382 0.12756862 0.09636168 -0.23194827
-0.14755785 0.09539365 -0.19187994 0.24388224 -0.080473 -0.15842444 0.043340124 0.03069272
-0.20654665 -0.31387192 0.042473946 0.123717286 0.05844059 0.058063816 0.0633856 -0.23363447
-0.17310908 0.19125016 0.010973748 -0.27282873 0.18293549 -0.15652266 0.12832244 0.11318462
0.042613916 -0.11565272 0.25580326 0.038677182 -0.2918653 0.1861465 -0.27648613 0.082478136
0.12189966 0.11243713 -0.36234024 -0.30320385 -0.14150499 -0.03338232 -0.15280424 -0.12236309
-0.033262137 0.22669414 -0.08396821 0.14158773 0.23793861 -0.055079035 -0.081100255 -0.3686251
-0.015152599 -0.43578893 -0.32794383 -0.2247888 -0.12347937 0.12670828 0.048314024 0.052630305
0.048777808 0.0042639086 -0.089304656 0.21375774 0.16233914 0.050094787 0.037222546 0.13026667
0.22221799 -0.04755231 0.19868936 0.07054653 -0.4498967 -0.24426466 -0.12833524 -0.019211743
-0.06937769 -0.22150806 0.013564566 0.13067472 0.07971441 -0.097145036 0.1500975 -0.09745243
-0.20445691 0.07228993 -0.13003004 0.16549295 0.17328492 0.21298112 0.041176155 -0.06299286
0.08288071 0.07048555 0.030520244 -0.32004854 -0.06380523 0.047807906 0.04285292 -0.027884183
0.08172236 -0.250252 0.12498364 -0.16196105 -0.24369405 0.14036223 -0.13011488 -0.13735515
-0.23023194 -0.015485766 0.15205704 0.4330888 0.015163861 0.043973394 -0.009260523 -0.066058785
0.064505026 -0.09618575 -0.20858191 0.049166594 0.09761188 -0.05843494 0.07456437 0.10231991
-0.2279441 0.02670405 0.119712554 -0.18353243 0.112088166 0.13811883 -0.1893009 0.018966205
0.27101874 0.12826899 0.23538607 0.09672217 -0.22222759 -0.05290341 0.06917599 -0.15634653

L3.bias f4 [9]
00000000: 6605 a83d 16bd dabd 0e6a 693d 9a43 23bd
00000010: 1989 a83c 31e1 853e d3b5 ab3d e6da 5ebe
00000020: 9d30 51bd
0.08204155 -0.106805965 0.056985907 -0.03985939 0.020573186 0.2614837 0.083842896 -0.2176319
-0.051071752

onnx::Conv_43 f4 [6, 1, 3, 3]
00000000: f9b6 e4bf 0787 35c0 4bdd 4ec0 48b5 bac0
00000010: 37fd 3f40 2281 1cc0 1da5 b73f 9d4e 1941
00000020: 6015 f93f 0e3e 6240 71c0 7b3f 5701 4dc0
00000030: 5b9d 5dbf 7bb7 af3c d1e0 2fc0 5901 423f
00000040: af1b 2bc0 c110 10be e622 bfbf b790 f9bf
00000050: 547e a5bf 217f 53bf 84d5 2bbf 6796 b93d
00000060: cf1c af3e 1b61 50bf d6e0 55bf c78f ff3f
00000070: 993e 8040 6527 af3f fdba f23f 4214 433f
00000080: fae8 c2bf 46c5 8b3f d45a 6fc0 272b 4cc0
00000090: 7f20 8c3f 28db 46c0 fe56 0dc0 0276 ad3f
000000a0: 8a02 2d40 f8cc 1fc0 7863 9340 0ca4 f83f
000000b0: 32b5 5bc0 ef89 0740 711b 35bf abc6 5840
000000c0: f2a9 7bc0 7b2c 3b40 4e44 f33f ebf3 b1c0
000000d0: 9da8 4dc0 4329 3940
-1.7868339 -2.8363664 -3.2322567 -5.834629 2.99983 -2.4453816 1.4347264 9.581693
1.9459648 3.5350375 0.9834052 -3.2032068 -0.8656823 0.021449795 -2.7480967 0.75783306
-2.6735647 -0.14068891 -1.4932525 -1.9497288 -1.2929177 -0.8261586 -0.67122674 0.0906189
0.34201667 -0.8139817 -0.835462 1.9965752 4.0076413 1.3683897 1.8963314 0.76202786
-1.5227349 1.0919578 -3.7399187 -3.1901338 1.0947417 -3.1071262 -2.2084346 1.3551638
2.70328 -2.4968853 4.605892 1.9425063 -3.4329343 2.1177938 -0.70745 3.3871257
-3.9322476 2.9245899 1.900522 -5.561025 -3.2134163 2.8931434

onnx::Conv_44 f4 [6]
00000000: e0bf 173c dc2e 503f 06bb 6a3f b8fb 463d
00000010: 6638 843e 2f74 903e
0.009262055 0.813215 0.91691625 0.0485799 0.2582428 0.2821364

onnx::Conv_46 f4 [16, 6, 5, 5]
00000000: 74f9 2dbd 3d89 013d c88a b33c eb06 debc
00000010: 6bb2 aebd 29ac 813d fd0c 773e 85b7 993e
00000020: 239c 0b3e ca46 72bc 6796 9abd f806 2a3d
00000030: 8555 bf3d b34c 18bd ca9c c33c 0e7b d5bd
00000040: 9a02 a9bd 1616 f9bc 51da 723c fa93 d83d
00000050: 80f2 15bd 99f5 e4bc 467b 0cbc b5c1 16bd
00000060: 41ee a53c 2651 09be 71a9 d1bd 998f 4e3b
00000070: eb26 4a3c e312 05bb 2586 e9bd 466d 00be
00000080: 096f 3abe e6fe 32bd 2464 acbc c029 33bb
00000090: 3a8f 9bbd 76da 56be f2c8 16be 94d2 e73c
000000a0: 365e 043d 7f06 c1bd 6ecc 953c 3976 9ebc
000000b0: 55f5 e5bb 7ed9 993d 083d 833d 959f 0f3e
000000c0: 2f3c 433e 644c 583e 73c5 9fbd f358 1d3d
000000d0: 4ba2 d2bc fefe 823d 3503 723d 99f1 21be
000000e0: 2f55 30be 7cc2 acbd c827 6cbd 7aa8 0bbd
000000f0: 1cc8 2ebd f1b9 e8bd 976a 19be f678 8bbe
00000100: c02d 20be ae53 b03d 1dc3 863d 9a4d c63d
00000110: fb4f aa3d 5258 053d 2714 cd3d 5afa 763e
00000120: 7abd e23d 2216 333e d2b3 033e 4029 fdb9
00000130: 247e de3b 9f8d 75bd 9490 63bd 378c 4bbd
00000140: 8341 08bc 9574 203c 58f3 da3b 0d57 abbb
00000150: 5e35 c2bb c24e 713d ff37 1a3e a025 f33d
00000160: a7e1 9f3d c988 17bd 09d0 1c3d 1262 823d
00000170: 081f dabd 8b1c 96bd 8edd 03be c7ff a13c
00000180: aa89 90bd a925 b6bd 73b4 cabd 1e59 ebbd
00000190: 7a1b 2bbc 1248 02bc 7771 dfbc 5b5d 8bbc
000001a0: 03d8 3b3d 3249 64bd 38ef e6bd 3842 c8bd
000001b0: fe65 a93d 77cb 9e3d 820c 92bd 7a81 4fbe
000001c0: 96b6 11be 1386 68bd 589e de3d 9fd2 87bd
000001d0: 791b 98bd 277b efbd 380f 25bd 322c 303d
000001e0: 659d 0c3d 10d6 7b3d 19b5 c2bd e072 98bd
000001f0: 46cf 28bd 3576 11bd 86f0 cbbd b93c 51be
00000200: 3aba 40be 6476 a8bd 76cc 163d 5e37 96bd
00000210: f189 47be 15b1 eabd dbe1 b8bd 19b6 393e
00000220: 30a4 d33d 49b8 9a3d 52d1 533e 8a8e d33d
00000230: 1a7f 6e3d ef2e 923c f6fe e4bb db48 9b3d
00000240: 53b6 6d3d 43ec 1cbd 0267 adbd e4b7 1ebd
00000250: d8c8 be3c b240 9f3d b79e a53c 3fdd d9bb
00000260: 551b dc3c e4ae bfbc 15fd c73d 02f4 fbbc
00000270: 9da8 75b9 bcdd eebc 1214 0ebd d32e d23c
00000280: 0e41 e2bc 0e51 2a3d 92fd 54bd 8d32 e0bd
00000290: adc9 2ebd f297 293d 4145 0dbd a5dd a7bd
000002a0: e9db e2bc 31b0 e4bd ef17 83bd f0c4 46be
000002b0: 1867 10be eb21 8dbc ae4b 34be 9f5f 87ba
000002c0: ef09 53bc 129a 8d3d cddc 793d dbdf ce3d
000002d0: 3655 a93c 0475 62bc 8753 bb3d 3edd 953c
000002e0: d739 e03d 7f35 2abd c1c4 72bd 9951 01bd
000002f0: f951 d03c bf6a 86bc 1183 563c 62f0 4b3c
00000300: 41be ba3d 3847 973d 0027 b13c c342 92bb
00000310: 4ae5 853d 92a1 0e3e 076f 263e 6412 183e
00000320: d2f1 6ebe a2fe 8dbd 3dba 51bd bbc6 bd3c
00000330: 23ca 00be 3945 19be 5198 4fbd a157 7bbd
00000340: 3ead 84bc 9cab d8bd 070c a0bd 1c06 a43c
00000350: 9673 0a3d cfa8 b4bd 863e 8bbd d649 d4bd
00000360: 7a47 cc3c e2ef f23a 5d73 92bd f505 6e3c
00000370: d54a 9fbd 05c9 683c 4f69 8e3d 466e 843d
00000380: 2b63 113e 455d 843e ba98 e33d cf13 c03d
00000390: 6f90 a9bb 7e99 2b3e bb71 023e 2693 8a3d
000003a0: 5afd 3c3d 0f77 0b3d dfed 1d3b dac7 5e3d
000003b0: e7e7 53bd 3769 14bb 6b5c 0ebd 1dc7 09bd
000003c0: 192a dbba 3448 cc3c 7371 2abd 8080 183d
000003d0: 7f69 00bc 47b8 91bb b7d4 59bd 7c71 97bd
000003e0: d09e e43c 2082 5dbd b393 fb3c e862 613d
000003f0: f36a 5a3d 3dc0 73bd eefd 67bd d0a9 803d
-0.042474225 0.03162502 0.021916762 -0.027102908 -0.08530124 0.06331665 0.24126048 0.30022827
0.1363378 -0.014787385 -0.07548218 0.041510552 0.093424834 -0.03718252 0.023878474 -0.104238614
-0.08252449 -0.03040604 0.0148225585 0.10575099 -0.03660822 -0.027949141 -0.008574313 -0.036805827
0.02025521 -0.13409862 -0.102373965 0.0031518696 0.01233838 -0.0020305447 -0.11402539 -0.12541685
-0.18206419 -0.04370012 -0.021043845 -0.0027338117 -0.07595678 -0.20981774 -0.14725092 0.028298654
0.03231641 -0.09425067 0.018285956 -0.019343482 -0.0070177712 0.075121865 0.06408125 0.1402572
0.19065927 0.2112289 -0.07801332 0.038414907 -0.025712153 0.06396292 0.05908509 -0.15814818
-0.17219995 -0.084355325 -0.057655126 -0.03409622 -0.042671308 -0.113635905 -0.14982067 -0.27240723
-0.15642452 0.08609711 0.06580184 0.0968277 0.08316036 0.032554932 0.100136094 0.24118939
0.11071296 0.17488912 0.12861565 -0.00048286654 0.0067899395 -0.059949514 -0.055557802 -0.049694266
-0.0083164 0.00979342 0.006681841 -0.005228883 -0.005926772 0.058913 0.15060423 0.11872411
0.07806712 -0.036995683 0.038284335 0.06366362 -0.1065045 -0.07329663 -0.12877485 0.019775284
-0.07057507 -0.08893902 -0.09897699 -0.11491607 -0.010443563 -0.007951753 -0.027275784 -0.017012289
0.0458603 -0.055733867 -0.11276096 -0.09778255 0.082714066 0.077536516 -0.07131292 -0.20264235
-0.14229807 -0.05676849 0.108700454 -0.0663197 -0.07427115 -0.11693411 -0.040297717 0.043010898
0.03432979 0.061483443 -0.09507198 -0.07443786 -0.041213296 -0.03551312 -0.099579856 -0.2043332
-0.1882104 -0.08225706 0.036816083 -0.07334779 -0.19486214 -0.11459557 -0.090274535 0.18135871
0.10334051 0.07554681 0.20685318 0.103299215 0.058226682 0.017844645 -0.0069884015 0.075822555
0.058035206 -0.038311254 -0.08466913 -0.03874959 0.02328913 0.077760115 0.020217283 -0.006648689
0.026868502 -0.023398824 0.097650684 -0.030756 -0.00023427834 -0.029158466 -0.03468711 0.025657093
-0.027618911 0.041581206 -0.051999636 -0.10947142 -0.0426728 0.041404672 -0.034489874 -0.08196572
-0.027692752 -0.11166418 -0.06401049 -0.19411063 -0.14101827 -0.017228087 -0.17606995 -0.001032818
-0.012880786 0.06914152 0.061001588 0.10101291 0.020670515 -0.013821844 0.09146791 0.018293973
0.10948532 -0.041554924 -0.05926967 -0.03157196 0.025429713 -0.016408322 0.013092772 0.012447448
0.09118319 0.07386631 0.021625042 -0.004463525 0.06537874 0.13928822 0.16253291 0.14850765
-0.23334435 -0.06933333 -0.051203 0.023166051 -0.12577109 -0.14967813 -0.05068237 -0.061362866
-0.01619589 -0.10579607 -0.07814794 0.020022444 0.033801638 -0.0882126 -0.06799035 -0.103656456
0.024936426 0.0018534625 -0.0715091 0.014527787 -0.07777945 0.014208083 0.0695368 0.064663455
0.14197986 0.2585241 0.11113115 0.09378778 -0.0051746885 0.16757771 0.12738697 0.067663476
0.046140052 0.03404909 0.002409808 0.054389812 -0.05173483 -0.002264572 -0.034756105 -0.033637155
-0.001672092 0.024936773 -0.0416121 0.037231922 -0.007837652 -0.0044470164 -0.053181376 -0.07394692
0.027907759 -0.054079175 0.030710077 0.055025965 0.05332465 -0.059509505 -0.05663865 0.06282389

onnx::Conv_47 f4 [16]
00000000: ef0e 483f b38d 7a3f b620 153f f917 ddbe
00000010: 9c7b e13f 8c74 87bd a04d ea3e f3d3 453f
00000020: 140e 56bf 9946 b6bf 84f5 7d3f c367 043f
00000030: e315 973f 9664 1f3f b1a2 a7be 70b8 f73c
0.78147787 0.97872466 0.5825304 -0.43182352 1.7615848 -0.066140264 0.45762348 0.77276534
-0.8361523 -1.4240295 0.9920275 0.5172083 1.1803554 0.62262857 -0.3274131 0.030239314
